week2/model.pt (torch, 35778 bytes, 92 tensors)

base.mean f4 [2]
0.0 0.0
00000000: 0000 0000 0000 0000

base.std f4 [2]
1.0 1.0
00000000: 0000 803f 0000 803f

transformations.0.mask f4 [2]
1.0 0.0
00000000: 0000 803f 0000 0000

transformations.0.scale_net.0.weight f4 [16, 2]
-0.58875114 0.6588858 -0.16331244 0.16768005 0.5601353 0.08321583 -0.3835524 0.41692144
0.5839797 0.46857432 1.0081443 -0.0018957652 0.67416555 -0.47659048 0.48492798 0.5796814
-0.6497308 -0.06741962 0.4260256 0.24383427 -0.88991416 -0.24715982 0.34753442 -0.64424694
-0.0018518482 0.31866136 0.51251304 -0.4286793 -0.1574765 0.09595893 0.6343852 -0.32897848
00000000: 65b8 16bf bdac 283f 603b 27be 52b4 2b3e
00000010: 0765 0f3f 106d aa3d fb60 c4be ba76 d53e
00000020: b27f 153f f9e8 ef3e df0a 813f 537b f8ba
00000030: 1d96 2c3f ab03 f4be 7b48 f83e 0066 143f
00000040: c254 26bf 4c13 8abd 0720 da3e b1af 793e
00000050: 6ad1 63bf 7717 7dbe 08f0 b13e 5eed 24bf
00000060: b7b9 f2ba 9527 a33e 0e34 033f da7b dbbe
00000070: 8541 21be 1e86 c43d 1267 223f de6f a8be

transformations.0.scale_net.0.bias f4 [16]
0.46245378 0.34368995 -0.3585772 0.07411512 0.27012795 -0.563914 0.54882604 0.39968002
0.33710918 -0.1786453 -0.115771174 -0.31883192 -0.58506393 -0.28431538 -0.29410264 0.5475271
00000000: bec6 ec3e 21f8 af3e 6e97 b7be abc9 973d
00000010: 364e 8a3e ab5c 10bf dd7f 0c3f dca2 cc3e
00000020: 9399 ac3e cbee 36be 7019 edbd f03d a3be
00000030: c0c6 15bf c991 91be 9f94 96be bc2a 0c3f

transformations.0.scale_net.2.weight f4 [2, 16]
-0.19777218 -0.024689734 0.013406068 -0.044226408 0.16411069 0.21306834 0.11061251 0.2284266
0.10020393 -0.16437978 0.14414051 -0.19714436 0.23006362 -0.13344207 0.16278124 0.100720435
-0.29048163 -0.08090161 -0.43975052 -0.054381616 -0.10881988 -0.49085298 0.080470905 0.15196562
-0.09304397 -0.051133934 -0.6779756 -0.03901907 -0.21517316 -0.5333928 -0.014066513 0.21769392
00000000: ca84 4abe 2042 cabc 20a5 5b3c c026 35bd
00000010: a20c 283e 962e 5a3e d088 e23d aae8 693e
00000020: b837 cd3d 2c53 28be 9299 133e 36e0 49be
00000030: cc95 6b3e 0aa5 08be 20b0 263e 8446 ce3d
00000040: 02ba 94be beaf a5bd fb26 e1be 42bf 5ebd
00000050: f5dc debd 1551 fbbe eecd a43d e09c 1b3e
00000060: d68d bebd d171 51bd cf8f 2dbf 76d2 1fbd
00000070: 5a56 5cbe 6e8c 08bf 3b77 66bc 28eb 5e3e

transformations.0.scale_net.2.bias f4 [2]
0.08524048 -0.017249437
00000000: 9092 ae3d b14e 8dbc

transformations.0.translation_net.0.weight f4 [16, 2]
0.21334505 0.05659521 -0.76781696 0.50704587 0.60128725 -0.18642798 -0.4043678 0.6159228
-0.6789527 0.35753307 -0.05000263 0.60722256 -0.6387475 -0.007932795 0.22023396 -0.15892194
0.78179437 -0.63949883 0.4726869 0.065073214 0.69370425 0.01720468 -0.36883467 -0.6442083
-0.47227862 0.41523758 0.43885297 -0.1835909 -0.20207044 0.2406274 -0.69881546 -0.051121514
00000000: 2077 5a3e 61d0 673d a78f 44bf c2cd 013f
00000010: f6ed 193f fae6 3ebe 4c09 cfbe 1ead 1d3f
00000020: d8cf 2dbf 930e b73e 8fcf 4cbd f072 1b3f
00000030: f584 23bf 8ef8 01bc 0385 613e 6fbc 22be
00000040: ad23 483f 32b6 23bf 0404 f23e 1b45 853d
00000050: 9a96 313f d4f0 8c3c e6d7 bcbe d6ea 24bf
00000060: 81ce f1be 059a d43e 56b1 e03e 41ff 3bbe
00000070: 8eeb 4ebe 0767 763e 92e5 32bf cb64 51bd

transformations.0.translation_net.0.bias f4 [16]
0.3376299 0.22634186 0.20952876 0.6577521 -0.1687754 0.28356513 0.60179967 0.16902547
0.45066357 0.34527773 0.21404484 0.3494975 -0.07257999 -0.4279233 0.61713535 -0.18163966
00000000: d4dd ac3e 29c6 673e b58e 563e 7162 283f
00000010: 75d3 2cbe 732f 913e 8b0f 1a3f 0315 2d3e
00000020: 60bd e63e 3ec8 b03e 922e 5b3e 56f1 b23e
00000030: d1a4 94bd c318 dbbe 95fc 1d3f bfff 39be

transformations.0.translation_net.2.weight f4 [2, 16]
-0.19676057 0.22164714 -0.19675907 -0.006045103 0.04190597 0.10940081 -0.18185797 -0.021404386
-0.054530352 0.12463495 -0.1336723 0.08370772 -0.06539169 -0.1676639 0.1907644 0.20183471
-0.16444467 0.27113885 0.19058068 -0.12780929 0.068077095 -0.1621525 0.103908256 -0.15595286
0.04346899 -0.14261578 0.13779731 0.16124414 -0.121597014 0.35224962 -0.10097456 0.12332488
00000000: 9a7b 49be 78f7 623e 367b 49be 0016 c6bb
00000010: 98a5 2b3d 880d e03d fa38 3abe 4058 afbc
00000020: 385b 5fbd 9c40 ff3d 64e1 08be f46e ab3d
00000030: 14ec 85bd 16b0 2bbe be57 433e c2ad 4e3e
00000040: 2f64 28be b6d2 8a3e 9527 433e 70e0 02be
00000050: 016c 8b3d 4e0b 26be dacd d43d 1bb2 1fbe
00000060: 8a0c 323d df09 12be bd1a 0d3e 2f1d 253e
00000070: db07 f9bd 105a b43e c0cb cebd c191 fc3d

transformations.0.translation_net.2.bias f4 [2]
-0.01829043 -0.08055495
00000000: d0d5 95bc fef9 a4bd

transformations.1.mask f4 [2]
0.0 1.0
00000000: 0000 0000 0000 803f

transformations.1.scale_net.0.weight f4 [16, 2]
0.6672766 0.31557754 0.67729455 0.6813847 -0.5877002 -0.3692965 -0.082844265 -0.67516065
-0.21130103 -0.34886172 -0.28994316 -0.6902074 -0.6668746 0.7420949 0.6501228 -0.282545
0.105452254 -0.19680168 0.63453144 0.7785229 0.20403583 0.19204481 -0.38145596 -0.82207257
0.06964177 0.6273676 -0.6424026 1.0295373 -0.46608925 0.40929455 0.38491738 0.1987363
00000000: a4d2 2a3f 6193 a13e 2d63 2d3f 3a6f 2e3f
00000010: 8573 16bf 6e14 bdbe 41aa a9bd 54d7 2cbf
00000020: 4c5f 58be 019e b2be 6e73 94be 6fb1 30bf
00000030: 4bb8 2abf eef9 3d3f 736e 263f bda9 90be
00000040: 5af7 d73d 6186 49be a770 223f 474d 473f
00000050: c5ee 503e 65a7 443e 324e c3be 5973 52bf
00000060: 58a0 8e3d 2a9b 203f 7f74 24bf e1c7 833f
00000070: 40a3 eebe 0e8f d13e e413 c53e 8781 4b3e

transformations.1.scale_net.0.bias f4 [16]
0.53457266 0.24848278 -0.30342084 -0.12703094 -0.2829028 -0.12922351 -0.100661024 -0.043849777
0.5182864 0.23147386 0.59745383 -0.16594428 0.03432759 0.066302106 0.36612695 0.36434144
00000000: c1d9 083f 4572 7e3e fa59 9bbe 6614 02be
00000010: a3d8 90be 2b53 04be 5e27 cebd d39b 33bd
00000020: 6bae 043f 7c07 6d3e bcf2 183f 4ced 29be
00000030: 169b 0c3d 66c9 873d fe74 bb3e f68a ba3e

transformations.1.scale_net.2.weight f4 [2, 16]
0.2125002 -0.030322276 0.75510746 -0.46014598 0.2138421 -0.5117376 -0.18076186 -0.30054417
0.28211674 -0.1561438 -0.110063404 -0.42624876 -0.1850105 -0.21912967 0.23269969 -0.023629539
-0.22012216 -0.1955181 0.18546316 0.18214482 0.10268003 0.12657827 -0.12532651 -0.22097668
0.09956598 0.2116465 0.0918192 -0.14463243 0.15694335 0.12500256 -0.0011244714 0.17332315
00000000: a799 593e 6c66 f8bc b94e 413f 4198 ebbe
00000010: 6cf9 5a3e 3c01 03bf a319 39be ede0 99be
00000020: 9b71 903e 29e4 1fbe ec68 e1bd 473d dabe
00000030: 6473 3dbe 8763 60be d448 6e3e bc92 c1bc
00000040: b467 61be e635 48be 0eea 3d3e 2c84 3a3e
00000050: e849 d23d bc9d 013e 9855 00be b647 62be
00000060: 40e9 cb3d dcb9 583e b40b bc3d 861a 14be
00000070: c2b5 203e ac00 003e 0063 93ba a07b 313e

transformations.1.scale_net.2.bias f4 [2]
0.096767455 -0.09367892
00000000: 042e c63d bcda bfbd

transformations.1.translation_net.0.weight f4 [16, 2]
0.15691018 0.019668417 0.23611103 -0.458322 -0.245976 0.064538665 -0.56353337 0.2864864
-0.13974714 0.39670452 0.66152555 -0.7120794 -0.60080695 -0.068978794 -0.07625275 -0.77010596
-0.34252128 -0.69339675 0.20792566 0.110484794 0.3902058 -0.7903135 -0.6598883 0.25446358
0.36389774 0.25924736 0.2764909 0.47300157 -0.25051767 0.4664278 0.13296513 0.59694093
00000000: 10ad 203e a91f a13c 17c7 713e 2ea9 eabe
00000010: 22e1 7bbe d92c 843d b943 10bf 58ae 923e
00000020: e019 0fbe db1c cb3e bd59 293f d64a 36bf
00000030: 7cce 19bf c144 8dbd 672a 9cbd aa25 45bf
00000040: f35e afbe 7382 31bf 77ea 543e da45 e23d
00000050: 0ec9 c73e fc51 4abf 71ee 28bf 0d49 823e
00000060: ce50 ba3e 12bc 843e 3790 8d3e 432d f23e
00000070: da43 80be a0cf ee3e 0328 083e 1fd1 183f

transformations.1.translation_net.0.bias f4 [16]
-0.45333952 -0.78110975 0.70698744 0.47363693 -0.11386001 0.5905693 0.6779454 -0.26948893
0.22383834 0.6328195 -0.59115106 -0.40876403 0.050508726 -0.25249106 0.46638712 0.20865951
00000000: 1e1c e8be cff6 47bf 21fd 343f 8a80 f23e
00000010: 702f e9bd 8d2f 173f d48d 2d3f 74fa 89be
00000020: e135 653e 7500 223f ad55 17bf 8549 d1be
00000030: 3de2 4e3d 8246 81be 4bca ee3e d7aa 553e

transformations.1.translation_net.2.weight f4 [2, 16]
-0.044265747 0.3409439 -0.19199319 0.24456513 0.1546905 -0.06591107 0.120930046 -0.27010813
-0.17393334 0.045933813 -0.37295637 0.9311942 0.22510685 0.46658304 0.22637132 0.11439881
-0.18634802 0.23520789 0.2244598 -0.078834295 0.13698414 -0.23519084 -0.039907783 0.20925099
-0.14762092 9.030104e-06 -0.23007846 0.14535931 -0.13412523 -0.09842053 -0.194132 -0.10218918
00000000: 0050 35bd 3390 ae3e dd99 44be 486f 7a3e
00000010: 3067 1e3e 62fc 86bd 2caa f73d 9d4b 8abe
00000020: 951b 32be 1825 3c3d 23f4 bebe be62 6e3f
00000030: 6982 663e f9e3 ee3e e2cd 673e ec49 ea3d
00000040: 04d2 3ebe 56da 703e cad8 653e e073 a1bd
00000050: 9245 0c3e ded5 70be 5876 23bd e445 563e
00000060: f029 17be 0080 1737 b099 6bbe 12d9 143e
00000070: 2058 09be b490 c9bd 8aca 46be 9048 d1bd

transformations.1.translation_net.2.bias f4 [2]
-0.052203666 0.1435534
00000000: 83d3 55bd aaff 123e

transformations.2.mask f4 [2]
1.0 0.0
00000000: 0000 803f 0000 0000

transformations.2.scale_net.0.weight f4 [16, 2]
-0.74772286 0.019687636 -0.6385258 0.6957393 -0.44204965 -0.011434524 -0.14002046 -0.37810645
-0.16168483 -0.6649473 -0.20643947 0.388138 -0.70271343 -0.36740434 0.48409542 0.48875627
0.10240718 0.50071824 -0.028247267 -0.569215 -0.3941677 -0.12491525 -0.5168353 0.0034106914
-0.16236313 -0.102813445 -0.4100165 0.5049626 0.12256868 0.53869945 -0.30509967 -0.2374255
00000000: c46a 3fbf f747 a13c 6d76 23bf f91b 323f
00000010: 5554 e2be df57 3bbc 8661 0fbe 2b97 c1be
00000020: b590 25be fc39 2abf de64 53be 06ba c63e
00000030: 07e5 33bf 6c1c bcbe 5bdb f73e 433e fa3e
00000040: dbba d13d 122f 003f d066 e7bc 13b8 11bf
00000050: 59d0 c9be 91d3 ffbd 514f 04bf e885 5f3b
00000060: 8542 26be db8f d2bd afed d1be 3b45 013f
00000070: 4a05 fb3d 35e8 093f 0636 9cbe ac1f 73be

transformations.2.scale_net.0.bias f4 [16]
-0.19181705 -0.1723619 0.29552346 0.5087253 -0.51737773 0.5785999 -0.5184846 -0.3876591
-0.28304508 0.38114616 0.7333043 -0.21466094 -0.28577203 -0.72302175 -0.7013523 -0.5376046
00000000: b06b 44be a37f 30be da4e 973e d23b 023f
00000010: de72 04bf 1f1f 143f 68bb 04bf 417b c6be
00000020: 49eb 90be 9725 c33e d5b9 3b3f 14d0 5bbe
00000030: b650 92be f417 39bf d38b 33bf 74a0 09bf

transformations.2.scale_net.2.weight f4 [2, 16]
0.05096844 0.12998602 0.15380946 -0.21156967 0.07260209 -0.22177356 0.06885737 -0.03439811
0.20445517 0.07617307 0.20340675 0.09595427 -0.014372587 -0.20173723 -0.124326825 -0.08807963
-0.3437553 -0.07088134 -0.04276828 -0.002172841 -0.043536305 -0.14511049 -0.37474203 -0.55607563
0.04716692 -0.19023581 -0.12578355 0.0940792 -0.63992214 -0.5771213 -0.15771821 -0.48618615
00000000: 48c4 503d 0e1b 053e 3a80 1d3e b8a5 58be
00000010: 68b0 943d 9c18 63be 1805 8d3d 08e5 0cbd
00000020: b25c 513e a000 9c3d dc49 503e ac83 c43d
00000030: 007b 6bbc 3494 4ebe 109f febd 1863 b4bd
00000040: b200 b0be 3c2a 91bd cb2d 2fbd 3966 0ebb
00000050: 2053 32bd d897 14be 30de bfbe f95a 0ebf
00000060: 1a32 413d 2dcd 42be 67cd 00be 98ac c03d
00000070: f0d1 23bf 39be 13bf e280 21be 64ed f8be

transformations.2.scale_net.2.bias f4 [2]
0.02716273 -0.12749805
00000000: 6084 de3c d98e 02be

transformations.2.translation_net.0.weight f4 [16, 2]
0.86212856 0.68217087 0.2786581 -0.6754618 0.35279667 0.5550123 -0.627792 0.6427146
-0.20852683 -0.1270998 0.7407477 -0.1669188 -0.6874505 -0.58550066 0.056526616 -0.24565502
0.6973328 -0.5998938 -0.12708075 0.69815606 0.3067304 -0.33634374 0.51756716 -0.09222885
-0.14749299 -0.14460751 0.3883405 0.5045706 0.6365331 0.13068093 -0.078715704 -0.51879853
00000000: 75b4 5c3f c0a2 2e3f 46ac 8e3e 11eb 2cbf
00000010: c4a1 b43e 4915 0e3f fab6 20bf f288 243f
00000020: 0f88 55be 7326 02be a4a1 3d3f c3ec 2abe
00000030: c2fc 2fbf 5fe3 15bf 7488 673d fd8c 7bbe
00000040: 6784 323f a492 19bf 7521 02be 5bba 323f
00000050: c40b 9d3e 3f35 acbe 487f 043f 7be2 bcbd
00000060: 6708 17be fe13 14be 91d4 c63e 8a2b 013f
00000070: d5f3 223f 39d1 053e b335 a1bd fbcf 04bf

transformations.2.translation_net.0.bias f4 [16]
-0.55146366 -0.39824542 0.5162826 -0.18788312 -0.6332228 -0.43089256 0.48639637 0.36826095
0.61914307 -0.441205 -0.20557301 0.19951479 -0.3849685 -0.5676742 0.23638347 0.21019673
00000000: b92c 0dbf d3e6 cbbe 192b 043f 6f64 40be
00000010: e41a 22bf f39d dcbe f208 f93e b38c bc3e
00000020: 2980 1e3f 9fe5 e1be bb81 52be 9b4d 4c3e
00000030: 971a c5be 1953 11bf 820e 723e d03d 573e

transformations.2.translation_net.2.weight f4 [2, 16]
0.24621269 -0.117170155 -0.06933963 0.070097655 -0.03210509 0.16134948 0.13962343 0.0043115616
-0.24413913 0.028148979 -0.18770263 -0.1585007 -0.034101427 -0.022085577 -0.08472535 0.12500966
-0.3992738 0.23579225 0.11420329 0.13316345 0.15598366 -0.25313112 -0.26202565 -0.01964863
-0.17685436 -0.15506804 -0.26686344 0.22293416 -0.27251002 0.35628632 0.038065888 -0.13399379
00000000: 2e1f 7c3e e8f6 efbd f001 8ebd 5c8f 8f3d
00000010: a080 03bd cc38 253e 72f9 0e3e 0048 8d3b
00000020: 9cff 79be b098 e63c 1e35 40be 024e 22be
00000030: f0ad 0bbd d0ec b4bc 7c84 adbd 8802 003e
00000040: 9e6d ccbe 8673 713e 6ae3 e93d 005c 083e
00000050: 2eba 1f3e 679a 81be 3a28 86be 2af6 a0bc
00000060: 4f19 35be 28ca 1ebe 53a2 88be da48 643e
00000070: 6f86 8bbe 296b b63e faea 1b3d ab35 09be

transformations.2.translation_net.2.bias f4 [2]
-0.0354307 0.22758292
00000000: c81f 11bd 7f0b 693e

transformations.3.mask f4 [2]
0.0 1.0
00000000: 0000 0000 0000 803f

transformations.3.scale_net.0.weight f4 [16, 2]
-0.3683337 -0.31181946 0.5550953 -0.3311828 -0.132339 0.94184315 0.28616303 -0.54232854
-0.54165184 0.5256684 -0.07509447 0.34058076 0.52681595 -0.6364726 -0.07493296 0.6264304
0.435909 -0.23387083 -0.44446304 -0.59099257 -0.07145577 -0.4358322 0.42745587 0.13868745
0.44883206 0.20427084 -0.17088415 0.26444402 0.13661706 0.8373455 -0.5817736 0.79302853
00000000: 3c96 bcbe cda6 9fbe ba1a 0e3f cb90 a9be
00000010: e083 07be a21c 713f f683 923e 0bd6 0abf
00000020: b2a9 0abf 3492 063f 21cb 99bd 9a60 ae3e
00000030: 69dd 063f deef 22bf 7476 99bd be5d 203f
00000040: 772f df3e d67b 6fbe a990 e3be 4a4b 17bf
00000050: 6757 92bd 6625 dfbe 7fdb da3e 1504 0e3e
00000060: 51cd e53e 602c 513e 41fc 2ebe 3565 873e
00000070: 58e5 0b3e 465c 563f 1def 14bf eb03 4b3f

transformations.3.scale_net.0.bias f4 [16]
0.8067798 -0.0563174 -0.12600872 -0.7299098 0.083750226 -0.59137136 -0.57432824 -0.08172098
-0.31959853 -0.10053009 0.03273846 -0.20705424 -0.029254662 0.13350376 -0.11277347 0.12152676
00000000: 1f89 4e3f 13ad 66bd 6e08 01be 5edb 3abf
00000010: 3d85 ab3d 1d64 17bf 2d07 13bf 545d a7bd
00000020: 6ba2 a3be b8e2 cdbd c318 063d 0706 54be
00000030: 79a7 efbc 36b5 083e c7f5 e6bd 06e3 f83d

transformations.3.scale_net.2.weight f4 [2, 16]
0.22136907 -0.33787176 -0.38248846 0.21577966 -0.039371416 0.21869582 -0.47406363 -0.4986386
0.08494437 -0.19946139 -0.02418279 0.030013308 -0.04080796 0.025900139 -0.68128777 -0.18429415
0.07603401 -0.21985698 0.06379959 0.09048933 -0.05646646 -0.093572825 0.20593885 -0.22427356
0.22198388 -0.17142105 0.20381701 0.12099764 0.22093502 -0.009283334 0.22803214 0.16625649
00000000: 93ae 623e 87fd acbe 87d5 c3be 58f5 5c3e
00000010: ec43 21bd ccf1 5f3e 78b8 f2be 8f4d ffbe
00000020: 50f7 ad3d 9b3f 4cbe fd1a c6bc 78de f53c
00000030: 3f26 27bd 872c d43c e068 2ebf 9bb7 3cbe
00000040: b8b7 9b3d 3022 61be 5ca9 823d 7852 b93d
00000050: 6049 67bd 1ca3 bfbd a2e1 523e f8a7 65be
00000060: be4f 633e 0089 2fbe 68b5 503e 9ccd f73d
00000070: ca3c 623e 2019 18bc 4281 693e 243f 2a3e

transformations.3.scale_net.2.bias f4 [2]
0.18398228 0.061125785
00000000: da65 3c3e 085f 7a3d

transformations.3.translation_net.0.weight f4 [16, 2]
-0.43006626 -0.030575322 -0.60058004 -0.04252601 0.061469577 0.4460872 0.37793037 0.11279844
-0.57660985 0.11896266 0.5925995 -0.44281852 0.16046965 0.27009398 0.053512674 -0.39806256
0.33858013 0.02128913 0.0077864616 -0.27568296 -0.31496483 0.64012825 0.095693156 0.6646202
-0.008594248 -0.62560034 0.20374924 -0.49873495 -0.688412 0.21736315 0.15017393 0.7698178
00000000: a531 dcbe 1979 fabc 9dbf 19bf c12f 2ebd
00000010: 86c7 7b3d 8b65 e43e 1780 c13e de02 e73d
00000020: b49c 13bf b2a2 f33d 9ab4 173f 1cb9 e2be
00000030: 2852 243e c249 8a3e 1b30 5b3d dbce cbbe
00000040: 605a ad3e 8b66 ae3c 9325 ff3b 5126 8dbe
00000050: 1243 a1be 72df 233f c6fa c33d 8d24 2a3f
00000060: e4ce 0cbc 5827 20bf a4a3 503e 305a ffbe
00000070: c53b 30bf 7294 5e3e 32c7 193e c812 453f

transformations.3.translation_net.0.bias f4 [16]
0.26117668 0.15729319 -0.12130226 0.09852468 0.14269155 -0.14837039 -0.073250145 -0.13327862
-0.3197614 -0.5968784 -0.41464588 0.587299 -0.19881833 -0.15318163 0.18998699 -0.49962425
00000000: f3b8 853e 7711 213e 526d f8bd 4fc7 c93d
00000010: bc1d 123e 68ee 17be 2c04 96bd 317a 08be
00000020: c4b7 a3be 06cd 18bf 774c d4be 3a59 163f
00000030: 0897 4bbe a5db 1cbe f38b 423e c0ce ffbe

transformations.3.translation_net.2.weight f4 [2, 16]
0.0711087 -0.0071992576 0.44327226 0.2593994 -0.09444907 -0.2729716 0.18128276 -0.33927
0.18624404 -0.18191639 0.6309582 0.28365624 -0.2859095 -0.22287232 0.14683375 0.51267046
0.2415235 -0.1511662 0.24293798 -0.201455 0.042937666 0.058598697 -0.01725623 -0.24642372
-0.15613478 -0.068265826 -0.18341932 -0.23675293 0.014920205 -0.13555843 -0.17071098 0.1869134
00000000: 70a1 913d c0e7 ebbb 95f4 e23e 00d0 843e
00000010: 846e c1bd efc2 8bbe 30a2 393e ccb4 adbe
00000020: c2b6 3e3e 4a48 3abe 7a86 213f 643b 913e
00000030: bb62 92be a438 64be 965b 163e 5f3e 033f
00000040: f051 773e 50cb 1abe bcc4 783e 384a 4ebe
00000050: 68df 2f3d 3005 703d f05c 8dbc 8056 7cbe
00000060: cce1 1fbe f4ce 8bbd 46d2 3bbe 5c6f 72be
00000070: e073 743c d4cf 0abe dcce 2ebe 3a66 3f3e

transformations.3.translation_net.2.bias f4 [2]
0.18264727 -0.031031817
00000000: e307 3b3e 7036 febc

transformations.4.mask f4 [2]
1.0 0.0
00000000: 0000 803f 0000 0000

transformations.4.scale_net.0.weight f4 [16, 2]
-0.7156899 0.41436362 -0.20524722 -0.13860126 -0.3637672 0.55639493 -0.62723917 0.59132123
-0.53276396 0.5118457 -0.22190642 -0.12545145 0.6714399 -0.1490632 -0.13836408 0.64608634
-0.4456229 -0.33108574 0.3736974 -0.5173707 0.29510102 0.36404255 0.64651376 0.38865775
0.16385327 -0.3063694 0.45198348 0.3310071 -0.46036392 -0.4054143 0.11085492 0.6864463
00000000: 7437 37bf 7827 d43e 542c 52be 7ded 0dbe
00000010: b23f babe e66f 0e3f bf92 20bf d460 173f
00000020: 3863 08bf 5208 033f 703b 63be 5876 00be
00000030: 7ce3 2b3f 06a4 18be 50af 0dbe ea65 253f
00000040: af28 e4be 1284 a9be 4455 bf3e 6872 04bf
00000050: 7b17 973e c963 ba3e ed81 253f 26fe c63e
00000060: 27c9 273e 73dc 9cbe 616a e73e c379 a93e
00000070: d2b4 ebbe 7792 cfbe e807 e33d f2ba 2f3f

transformations.4.scale_net.0.bias f4 [16]
-0.100278005 0.3564097 -0.26754218 -0.41033608 -0.36573693 0.7782197 0.84736663 0.71695083
-0.93258363 -0.1228384 0.24960056 0.44541475 0.16631564 0.28846833 0.35968035 -0.60585755
00000000: 8e5e cdbd 557b b63e 4afb 88be 9217 d2be
00000010: df41 bbbe 6839 473f 05ed 583f 178a 373f
00000020: cdbd 6ebf b392 fbbd 4a97 7f3e 670d e43e
00000030: a64e 2a3e 1fb2 933e 0628 b83e 7b19 1bbf

transformations.4.scale_net.2.weight f4 [2, 16]
-0.048975766 0.18991593 0.046892077 -0.1159589 0.18994352 0.024779499 -0.08832744 -0.041583747
0.11740741 -0.12986133 -0.044151098 -0.02390173 -0.1816862 0.04606977 0.1594677 -0.24461761
0.22390093 -0.17618816 -0.23962478 -0.12080776 -0.08519609 -0.17941715 -0.16844906 -0.21184167
-0.7458053 -0.0155612985 -0.20936485 -0.14258496 0.06788142 -0.34456593 0.1729416 0.037850905
00000000: d09a 48bd 5279 423e e811 403d dc7b edbd
00000010: 8e80 423e 60fe ca3c 04e5 b4bd b853 2abd
00000020: 4c73 f03d 5efa 04be c8d7 34bd 90cd c3bc
00000030: f20b 3abe a8b3 3c3d 804b 233e 0a7d 7abe
00000040: 4946 653e ab6a 34be 3360 75be 0f6a f7bd
00000050: 4a7b aebd 21b9 37be e97d 2cbe 06ed 58be
00000060: 19ed 3ebf d1f4 7ebc bd63 56be cb01 12be
00000070: 6a05 8b3d f26a b0be 9a17 313e 8d09 1b3d

transformations.4.scale_net.2.bias f4 [2]
-0.18353978 -0.053237204
00000000: daf1 3bbe 410f 5abd

transformations.4.translation_net.0.weight f4 [16, 2]
0.192682 -0.16772954 0.08912084 0.6714813 0.3668248 -0.11219668 -0.807548 -0.12907894
-0.9335914 0.08988127 -0.7156079 -0.46743146 0.249455 -0.37493464 0.18079285 -0.19320604
0.5752436 0.47157848 -0.041744564 -0.63535184 0.51607615 0.1804685 0.2743997 -0.37326226
-0.5017443 -0.19487034 0.09199965 -0.5263164 0.0036787454 -0.6555586 0.825656 -0.26951948
00000000: 6e4e 453e 4bc1 2bbe fd84 b63d 33e6 2b3f
00000010: 76d0 bb3e 5fc7 e5bd 77bb 4ebf 452d 04be
00000020: d9ff 6ebf ac13 b83d 1432 37bf 2d53 efbe
00000030: 2271 7f3e 6ff7 bfbe c321 393e ced7 45be
00000040: 2a43 133f bc72 f13e 59fc 2abd 6ba6 22bf
00000050: 911d 043f bccc 383e 1e7e 8c3e 3b1c bfbe
00000060: 5072 00bf 178c 47be 506a bc3d acbc 06bf
00000070: 1b17 713b b0d2 27bf 315e 533f 75fe 89be

transformations.4.translation_net.0.bias f4 [16]
0.4403681 0.08233943 -0.6967639 -0.2240048 -0.4020467 0.3932182 -0.47586834 -0.3462115
-0.26167607 0.34114856 0.0685482 -0.6988232 -0.4755927 0.2324305 -0.27239752 0.3418263
00000000: ed77 e13e 93a1 a83d 1e5f 32bf 8461 65be
00000010: 11d9 cdbe e553 c93e 04a5 f3be a242 b1be
00000020: 68fa 85be 06ab ae3e 0063 8c3d 14e6 32bf
00000030: e380 f3be 4302 6e3e b077 8bbe db03 af3e

transformations.4.translation_net.2.weight f4 [2, 16]
0.22970414 -0.036494553 0.15563595 -0.029520124 0.24399564 -0.17196596 -0.013883412 -0.20294017
0.04618898 0.00082078576 -0.075600594 -0.11481175 -0.13069451 0.16696775 -0.055728734 0.099989
-0.13821359 -0.14128533 0.35324958 0.24465697 0.40095687 -0.12860449 0.34585527 0.45270032
-0.14333352 0.20297752 0.20630723 -0.37910149 -0.3482442 0.13687581 -0.17076787 0.07024476
00000000: 9037 6b3e 507b 15bd 085f 1f3e 30d4 f1bc
00000010: fed9 793e d817 30be 4077 63bc 8ccf 4fbe
00000020: a830 3d3d 002a 573a 7cd4 9abd 6c22 ebbd
00000030: c8d4 05be 98f9 2a3e d043 64bd 08c7 cc3d
00000040: dd87 0dbe 1aad 10be 21dd b43e 5b87 7a3e
00000050: 384a cd3e e5b0 03be f113 b13e 56c8 e73e
00000060: 06c6 12be 57d9 4f3e 3442 533e 9719 c2be
00000070: 104d b2be 2c29 0c3e c6dd 2ebe 7cdc 8f3d

transformations.4.translation_net.2.bias f4 [2]
0.0012477338 -0.05041813
00000000: 008b a33a 3e83 4ebd

transformations.5.mask f4 [2]
0.0 1.0
00000000: 0000 0000 0000 803f

transformations.5.scale_net.0.weight f4 [16, 2]
0.25384414 -0.060712114 0.29938304 -1.018349 -0.21838507 -0.07534396 -0.10355911 -0.07555792
0.32990015 -0.28767878 0.5295329 -0.469335 0.35282812 0.16116793 -0.16545832 0.22673166
0.20984983 0.6023205 0.34478423 -0.03627731 0.65469706 -0.46007934 -0.22402509 0.96667504
0.6937696 0.28236392 -0.3599565 0.24972968 0.69371647 -0.1916566 0.11120471 0.19448094
00000000: dcf7 813e 44ad 78bd bc48 993e 4359 82bf
00000010: 56a0 5fbe ef4d 9abd cc16 d4bd 1cbe 9abd
00000020: ace8 a83e a24a 93be 788f 073f ad4c f0be
00000030: e3a5 b43e 3509 253e e86d 29be 582c 683e
00000040: e0e2 563e ad31 1a3f 8f87 b03e 8497 14bd
00000050: 3a9a 273f 858f ebbe d566 65be 0478 773f
00000060: e29a 313f 0192 903e 384c b8be 23b9 7f3e
00000070: 6797 313f a141 44be 4cbf e33d 0326 473e

transformations.5.scale_net.0.bias f4 [16]
-0.56594896 0.25299257 0.6526381 -0.09456067 0.1554988 -0.49355358 0.49626365 -0.3315524
-0.3862033 -0.65517694 0.452406 -0.23894566 -0.20151682 -0.46189606 0.31355542 0.2598874
00000000: 08e2 10bf 3e88 813e 4a13 273f 06a9 c1bd
00000010: 143b 1f3e 0eb3 fcbe 4516 fe3e 3cc1 a9be
00000020: 70bc c5be adb9 27bf c2a1 e73e 2cae 74be
00000030: 6d5a 4ebe a47d ecbe 568a a03e f60f 853e

transformations.5.scale_net.2.weight f4 [2, 16]
0.012694597 -0.66253823 -0.12448497 -0.11063558 0.2654786 -0.24198884 -0.23062675 -0.110933185
0.2956682 0.10883334 -0.06893343 -0.4508339 0.19610189 0.21165404 0.09494147 -0.19260597
0.17099863 -0.22118041 0.21993923 0.17454213 0.18164155 -0.16390067 -0.06656122 0.051938027
0.16618234 -0.17656884 0.21598879 0.23836347 0.14525649 -0.16074625 0.06321266 -0.0810301
00000000: 00fd 4f3c 1b9c 29bf faf1 febd e894 e2bd
00000010: d0ec 873e eccb 77be 6b29 6cbe f030 e3bd
00000020: d361 973e 04e4 de3d f82c 8dbd b3d3 e6be
00000030: efce 483e d6bb 583e ac70 c23d 803a 45be
00000040: 441a 2f3e 1e7d 62be c037 613e 2cbb 323e
00000050: 3e00 3a3e 94d5 27be 4051 88bd f8bc 543d
00000060: b42b 2a3e 76ce 34be 2a2c 5d3e 8e15 743e
00000070: 1ebe 143e aa9a 24be a475 813d 1cf3 a5bd

transformations.5.scale_net.2.bias f4 [2]
-0.07380842 -0.15704945
00000000: de28 97bd 92d1 20be

transformations.5.translation_net.0.weight f4 [16, 2]
0.21623424 -0.39716384 0.15064792 0.024319235 -0.5622668 -0.285269 -0.45068264 -0.15797842
-0.6200665 -0.5723088 -0.12719817 -0.3734591 -0.05832146 0.18426031 -0.025175154 -0.39028925
-0.029187957 0.8254419 -0.46566173 -0.49165618 0.46604046 0.0018587603 -0.28436807 -0.19946375
-0.42890596 0.47722498 -0.6426765 -0.5044484 0.23736507 -0.035156626 -0.42540956 0.6240476
00000000: 826c 5d3e 0f59 cbbe 7343 1a3e 2239 c73c
00000010: b8f0 0fbf c70e 92be e0bf e6be 18c5 21be
00000020: aebc 1ebf d482 12bf 3d40 02be 0836 bfbe
00000030: 7ce2 6ebd bcae 3c3e 203c cebc fed3 c7be
00000040: 951b efbc 2950 533f 376b eebe 5cba fbbe
00000050: db9c ee3e a5a1 f33a b198 91be 3a40 4cbe
00000060: 9099 dbbe d556 f43e 7286 24bf 8823 01bf
00000070: d40f 733e 6500 10bd 48cf d9be 95c1 1f3f

transformations.5.translation_net.0.bias f4 [16]
-0.56144214 0.18729113 0.38362962 0.23080224 -0.30141723 -0.19692837 0.32216462 -0.34228778
0.039281767 0.5152476 -0.36036146 -0.5662853 -0.62797385 0.6677172 -0.063568994 -0.70683426
00000000: acba 0fbf 3fc9 3f3e 1a6b c43e 6c57 6c3e
00000010: 5c53 9abe 97a7 49be c3f2 a43e 5840 afbe
00000020: ebe5 203d 44e7 033f 4c81 b8be 13f8 10bf
00000030: e5c2 20bf 84ef 2a3f 7630 82bd 17f3 34bf

transformations.5.translation_net.2.weight f4 [2, 16]
0.23801029 0.14506043 -0.28107467 -0.2759411 1.1137972 0.8002112 0.12957759 -0.060729474
-0.3941671 -0.32444042 0.19127917 -0.029181868 0.1165539 -0.03003749 -0.15246686 0.09512022
0.01180163 0.101522505 -0.15924683 -0.14481643 -0.18125871 0.20732495 0.1340872 -0.10502404
-0.17868531 -0.20561564 0.021418035 0.22885883 -0.07631329 -0.17530558 -0.2347908 0.054956853
00000000: f8b8 733e b98a 143e 05e9 8fbe 2748 8dbe
00000010: e890 8e3f a4da 4c3f fdaf 043e 78bf 78bd
00000020: 45d0 c9be 0e1d a6be b0de 433e d00e efbc
00000030: d0b3 ee3d 2f11 f6bc 4620 1cbe 64ce c23d
00000040: a05b 413c 08eb cf3d 9a11 23be c24a 14be
00000050: e29b 39be fe4c 543e 284e 093e d816 d7bd
00000060: 48f9 36be e88c 52be e074 af3c f859 6a3e
00000070: 244a 9cbd 4e83 33be 006d 70be 701a 613d

transformations.5.translation_net.2.bias f4 [2]
-0.21663077 0.10113832
00000000: 75d4 5dbe 9c21 cf3d

transformations.6.mask f4 [2]
1.0 0.0
00000000: 0000 803f 0000 0000

transformations.6.scale_net.0.weight f4 [16, 2]
-0.2693413 0.012047171 0.0005195521 -0.6463983 -0.18772839 0.48226666 -0.014999894 0.028686915
-0.41057634 -0.23208626 -0.29319337 0.22900254 0.4681994 0.11743949 -0.16253217 0.3494058
-0.37044713 -0.47512025 0.6438804 0.5978559 0.49657744 0.58550864 0.0015020294 0.56852525
-0.064864755 -0.051745962 0.12319214 -0.44230148 -0.29629216 -0.31735817 0.09268994 -0.5506524
00000000: 1ae7 89be 7f61 453c 8d32 083a 5c7a 25bf
00000010: df3b 40be a8eb f63e 1ec2 75bc d200 eb3c
00000020: 1037 d2be 05a8 6dbe 711d 96be a47f 6a3e
00000030: d5b7 ef3e 1e84 f03d d56e 26be 51e5 b23e
00000040: 3fab bdbe f642 f3be 59d5 243f 160d 193f
00000050: 663f fe3e e5e3 153f bedf c43a df8a 113f
00000060: d0d7 84bd 93f3 53bd 294c fc3d 5775 e2be
00000070: 9bb3 97be c57c a2be 39d4 bd3d 8ef7 0cbf

transformations.6.scale_net.0.bias f4 [16]
-0.31581724 -0.014993159 0.57073814 -0.38212457 0.08243763 -0.16079938 -0.5667132 -0.19269471
-0.42819816 0.27601022 -0.2743246 -0.027835548 -0.5241742 0.28272593 -0.48009306 -0.63647294
00000000: ccb2 a1be dea5 75bc e51b 123f d5a5 c3be
00000010: 0fd5 a83d 98a8 24be 1e14 11bf c351 45be
00000020: ca3c dbbe 3651 8d3e 4674 8cbe 6007 e4bc
00000030: 4830 06bf 74c1 903e c2ce f5be e4ef 22bf

transformations.6.scale_net.2.weight f4 [2, 16]
0.10009864 -0.17419997 0.12475157 0.16641533 0.23384124 0.2070837 -0.13111815 0.07697818
-0.052681863 -0.17071703 -0.20010456 0.21697801 0.00990805 -0.12844741 -0.021917373 -0.22794557
-0.33671826 0.13874818 -0.044156037 0.025945365 0.07442138 -0.10791844 0.0010816272 -0.22476429
-0.28445566 0.006614494 -0.42603183 -0.114203215 0.12713695 0.16980045 0.2483881 0.036560714
00000000: 8400 cd3d 7a61 32be c07d ff3d c868 2a3e
00000010: 1474 6f3e c00d 543e d643 06be bca6 9d3d
00000020: f0c8 57bd 72d0 2ebe 36e8 4cbe 7c2f 5e3e
00000030: 6055 223c b887 03be 108c b3bc 906a 69be
00000040: 5666 acbe 0114 0e3e f6dc 34bd 608b d43c
00000050: 3d6a 983d 5804 ddbd 63c5 8d3a 9c28 66be
00000060: 2ca4 91be 66be d83b d820 dabe 60e3 e9bd
00000070: 3030 023e 2be0 2d3e 7359 7e3e b0c0 153d

transformations.6.scale_net.2.bias f4 [2]
-0.1861417 0.037203908
00000000: ee9b 3ebe 2063 183d

transformations.6.translation_net.0.weight f4 [16, 2]
-0.19086228 0.48720694 0.61703366 -0.33982438 0.3966671 0.45332846 -0.3127999 0.43000904
-0.5552163 0.38650396 0.33658364 0.49522868 -0.14427689 -0.06939175 0.4503844 0.13274832
-0.57722175 -0.2685201 -0.8636682 0.12253724 -0.20251185 0.4697487 0.5274423 0.33029464
0.21947879 0.23994032 0.12901734 0.34627345 0.7454633 0.16973624 0.28785056 0.5186359
00000000: 6771 43be 3073 f93e ebf5 1d3f 76fd adbe
00000010: f317 cb3e ab1a e83e 4f27 a0be 252a dc3e
00000020: a822 0ebf d9e3 c53e b154 ac3e 9d8e fd3e
00000030: 52bd 13be 431d 8ebd c998 e63e 2def 073e
00000040: cec4 13bf 777b 89be 5c19 5dbf cef4 fa3d
00000050: 445f 4fbe e782 f03e 7506 073f 611c a93e
00000060: 0cbf 603e eab2 753e 1f1d 043e c14a b13e
00000070: afd6 3e3f 56cf 2d3e 2661 933e 53c5 043f

transformations.6.translation_net.0.bias f4 [16]
0.40003476 -0.1625763 -0.60201555 -0.17221726 -0.65366817 0.5952593 0.39680982 0.7928536
0.44575003 -0.47807875 0.3254205 -0.7815329 -0.5425066 0.6278469 0.15687883 -0.22225958
00000000: 5bd1 cc3e 677a 26be b11d 1abf b959 30be
00000010: cc56 27bf ea62 183f a82a cb3e 74f8 4a3f
00000020: 5939 e43e bdc6 f4be 849d a63e 8a12 48bf
00000030: b6e1 0abf 93ba 203f d8a4 203e 0498 63be

transformations.6.translation_net.2.weight f4 [2, 16]
0.12793899 0.087263465 0.06640303 0.02140364 0.02188605 -0.17051682 0.2447544 -0.16755503
-0.15296105 0.21385023 0.21238905 0.0575909 -0.09862 0.084801614 0.12079874 0.028599054
-0.013275555 -0.30537203 -0.12622812 0.04722164 -0.47370625 0.13738376 -0.11745473 0.21149394
0.22368865 0.22977303 -0.02789112 -0.26060584 -0.16270408 0.11235887 -0.20672047 0.21669114
00000000: 7002 033e 30b7 b23d 50fe 873d b056 af3c
00000010: 604a b33c f69b 2ebe e6a0 7a3e 8c93 2bbe
00000020: d2a1 1cbe 8efb 5a3e 847c 593e 70e4 6b3d
00000030: 48f9 c9bd 78ac ad3d 5465 f73d 9048 ea3c
00000040: b781 59bc b959 9cbe f241 01be 7a6b 413d
00000050: a089 f2be 54ae 0c3e 1b8c f0bd de91 583e
00000060: a30e 653e 9f49 6b3e eb7b e4bc 216e 85be
00000070: e69b 26be 681c e63d 88ae 53be 48e4 5d3e

transformations.6.translation_net.2.bias f4 [2]
0.10936466 0.18620645
00000000: 94fa df3d e7ac 3e3e

transformations.7.mask f4 [2]
0.0 1.0
00000000: 0000 0000 0000 803f

transformations.7.scale_net.0.weight f4 [16, 2]
0.04740096 -0.78517926 -0.12683445 -0.66111153 0.06594928 -0.49242502 0.21657486 -0.87607193
-0.15686788 0.2664893 -0.41794333 -0.40249145 -0.6673083 0.28282157 -0.020385755 -0.5447242
-0.27953467 0.09347126 -0.05360531 0.6062409 0.10870978 0.03861781 0.52372694 -0.56491095
-0.3003794 0.39533612 -0.14021835 0.58237857 -0.6845747 0.5142743 -0.69919336 0.16067801
00000000: 8227 423d 8201 49bf e4e0 01be 9b3e 29bf
00000010: 6b10 873d 221f fcbe cdc5 5d3e 4046 60bf
00000020: f9a1 20be 4971 883e abfc d5be 5c13 cebe
00000030: b7d4 2abf fdcd 903e 0700 a7bc 0c73 0bbf
00000040: 2b1f 8fbe dc6d bf3d 3e91 5bbd 9b32 1b3f
00000050: 3ca3 de3d b52d 1e3d f812 063f 019e 10bf
00000060: 54cb 99be 7f69 ca3e 6695 0fbe c316 153f
00000070: 4a40 2fbf 7ba7 033f 56fe 32bf c788 243e

transformations.7.scale_net.0.bias f4 [16]
0.38743645 0.5471924 0.40766054 0.4323343 -0.22174451 -0.6844662 0.37299377 0.66162527
-0.5780134 0.34859505 -0.13304546 -0.193114 0.18486777 0.54687226 -0.68675745 0.2746827
00000000: 125e c63e cd14 0c3f e2b8 d03e ec5a dd3e
00000010: fe10 63be 2d39 2fbf 0af9 be3e 4660 293f
00000020: b0f8 13bf 0d7b b23e 123d 08be adbf 45be
00000030: fa4d 3d3e d2ff 0b3f 56cf 2fbf 36a3 8c3e

transformations.7.scale_net.2.weight f4 [2, 16]
0.6469708 -0.38227537 -0.45699844 0.42372793 -0.5622916 -0.12447205 0.19157484 0.009843401
-0.24919689 -0.26568177 -0.23119414 0.112478584 -0.21060815 -0.22800434 -0.15063936 -0.03856934
0.23208788 0.00056904554 0.10459408 -0.17344555 0.180868 -0.22666249 0.110912114 0.0509021
-0.04208201 0.09266701 0.08055198 0.16106573 -0.22120905 -0.092063606 -0.14604717 0.16309121
00000000: e19f 253f 99b9 c3be b3fb e9be def2 d83e
00000010: 58f2 0fbf 34eb febd 322c 443e 3746 213c
00000020: 782d 7fbe 7107 88be 28be 6cbe 2c5b e63d
00000030: aaa9 57be f879 69be 3441 1abe e2fa 1dbd
00000040: 72a8 6d3e 002c 153a 6c35 d63d b69b 31be
00000050: 7635 393e 361a 68be e425 e33d b87e 503d
00000060: 305e 2cbd 34c8 bd3d 70f8 a43d 6aee 243e
00000070: a084 62be d88b bcbd 648d 15be 6201 273e

transformations.7.scale_net.2.bias f4 [2]
-0.17681177 -0.08896577
00000000: 250e 35be b033 b6bd

transformations.7.translation_net.0.weight f4 [16, 2]
0.020592107 -0.020506296 -0.19038752 -0.76766056 -0.20990664 -0.30138427 -0.109931536 -0.47149855
-0.20754051 0.5682005 0.28683594 -0.17523164 -0.15501249 0.6457613 0.67375606 -0.5894097
-0.5994827 -0.036127318 -0.5619514 -0.5303957 -0.21362905 0.56603044 -0.2770582 -0.2173068
0.30795732 -0.901287 0.4498806 -0.3126327 -0.45008165 -0.07964761 -0.101289324 -1.0881486
00000000: c7b0 a83c d2fc a7bc f2f4 42be 6785 44bf
00000010: c4f1 56be 0a4f 9abe c923 e1bd 4268 f1be
00000020: 8085 54be 9775 113f 29dc 923e ec6f 33be
00000030: 98bb 1ebe 9d50 253f 477b 2c3f 8ee3 16bf
00000040: b377 19bf 3dfa 13bd 0cdc 0fbf 03c8 07bf
00000050: 93c1 5abe 5fe7 103f 93da 8dbe ac85 5ebe
00000060: 95ac 9d3e bfba 66bf c056 e63e 6511 a0be
00000070: 1a71 e6be 491e a3bd c770 cfbd 7448 8bbf

transformations.7.translation_net.0.bias f4 [16]
-0.01849766 0.36695832 -0.43341947 0.56390524 0.6000033 0.32558388 -0.52868754 -0.13393079
0.6729807 -0.4607478 -0.27582085 0.422307 0.12902474 0.5395092 0.48124674 0.15716194
00000000: 6888 97bc f6e1 bb3e 28e9 ddbe 185c 103f
00000010: d199 193f eeb2 a63e 1158 07bf 2725 09be
00000020: 7748 2c3f 23e7 ebbe 6438 8dbe a038 d83e
00000030: 101f 043e 461d 0a3f f965 f63e 0fef 203e

transformations.7.translation_net.2.weight f4 [2, 16]
0.08613765 -0.4810601 -0.09812632 0.08630764 0.109314315 -0.034801774 0.2316981 -0.21020393
0.11477715 0.09292874 -0.418707 0.09992279 -0.39543977 -0.102223486 0.122621164 -0.7629403
-0.15801236 0.09339753 0.22923195 -0.2420311 0.23830044 -0.1624035 0.11303809 -0.047099292
0.08629319 -0.047425 -0.1352174 -0.02595985 0.084270865 -0.077681094 0.20140305 -0.11254144
00000000: f068 b03d 824d f6be 74f6 c8bd 0fc2 b03d
00000010: 2fe0 df3d 4e8c 0ebd 4442 6d3e b33f 57be
00000020: 4810 eb3d 6c51 be3d c460 d6be 52a4 cc3d
00000030: 1577 cabe 8c5a d1bd ce20 fb3d 0e50 43bf
00000040: fecd 21be 3447 bf3d c8bb 6a3e 00d7 77be
00000050: 0805 743e 1a4d 26be 8480 e73d 30eb 40bd
00000060: 7cba b03d b840 42bd 6e76 0abe c0a9 d4bc
00000070: 3496 ac3d 4417 9fbd 9a3c 4e3e 207c e6bd

transformations.7.translation_net.2.bias f4 [2]
0.15352695 -0.24888179
00000000: 2b36 1d3e deda 7ebe

transformations.8.mask f4 [2]
1.0 0.0
00000000: 0000 803f 0000 0000

transformations.8.scale_net.0.weight f4 [16, 2]
-0.5323361 0.113185614 0.47890452 -0.0041488516 0.68754214 -0.45033544 0.6245677 -0.18584163
0.13966142 -0.3019712 -0.5220109 -0.0985454 0.3001013 0.3388239 0.6070469 -0.22477572
0.25004575 -0.52235806 0.5432943 -0.22308007 0.27117768 -0.37892637 0.38697913 0.47160932
0.616652 0.12413351 -0.96190155 0.5656047 -0.36942628 0.0789381 0.65358996 0.5312863
00000000: 2e47 08bf dccd e73d f932 f53e 17f3 87bb
00000010: c302 303f 5e92 e6be abe3 1f3f 454d 3ebe
00000020: 6703 0f3e f89b 9abe 82a2 05bf 2cd2 c9bd
00000030: e1a6 993e 547a ad3e 6d67 1b3f 9b2b 66be
00000040: ff05 803e 42b9 05bf 5615 0b3f 1a6f 64be
00000050: cdd7 8a3e a302 c2be 2122 c63e c776 f13e
00000060: e8dc 1d3f b639 fe3d 2e3f 76bf 78cb 103f
00000070: 7125 bdbe 4caa a13d ac51 273f 6102 083f

transformations.8.scale_net.0.bias f4 [16]
-0.50428414 0.4517018 -0.40216795 -0.12130265 -0.10530081 0.51866 0.17917547 -0.22463502
0.3213348 -0.7379642 0.68093383 -0.6781368 -0.3608941 -0.2828448 -0.35298544 0.079074845
00000000: c418 01bf 7545 e73e f5e8 cdbe 866d f8bd
00000010: f3a7 d7bd e7c6 043f c679 373e b906 66be
00000020: ff85 a43e 39eb 3cbf ae51 2e3f 609a 2dbf
00000030: 1dc7 b8be 09d1 90be 82ba b4be fef1 a13d

transformations.8.scale_net.2.weight f4 [2, 16]
-0.08890355 -0.17437601 -0.15089387 0.21141309 -0.064525485 0.0467543 -0.053904325 -0.17516464
0.06087494 0.06061721 0.07180068 -0.04635656 -0.085265875 0.031448692 0.087051034 0.028007925
-0.1704919 0.23258089 -0.4305148 -0.14281933 0.13908812 -0.092413016 0.19097674 0.03257626
0.15748946 0.21741955 0.077122495 0.046539426 -0.33023816 -0.6640346 -0.22406985 0.22524866
00000000: 1013 b6bd a08f 32be ec83 1abe ac7c 583e
00000010: f025 84bd 7081 3f3d c8ca 5cbd 5c5e 33be
00000020: 0058 793d c049 783d 3c0c 933d 60e0 3dbd
00000030: e09f aebd 58d0 003d d047 b23d e070 e53c
00000040: 6e95 2ebe af29 6e3e 706c dcbe 3b3f 12be
00000050: 1e6d 0e3e 0943 bdbd 688f 433e af6e 053d
00000060: eb44 213e 3ba3 5e3e 66f2 9d3d 20a0 3e3d
00000070: fa14 a9be 2cfe 29bf 9172 65be 96a7 663e

transformations.8.scale_net.2.bias f4 [2]
-0.14899352 -0.0445231
00000000: c291 18be db5d 36bd

transformations.8.translation_net.0.weight f4 [16, 2]
0.17993982 0.06434121 0.61982316 0.17833848 -0.038634334 -0.16254126 -0.1937787 -0.67521393
0.3208513 -0.6518766 0.20457411 0.08887421 -0.5483392 -0.033078954 -0.22987941 0.3644035
0.8065161 0.37120414 0.07093475 0.020114077 0.4080027 0.005228822 0.25874773 0.26472393
-0.8185622 -0.17001878 0.83236885 -0.13667414 0.45471656 0.48640034 0.4751614 -0.07467992
00000000: 2542 383e 53c5 833d bbac 1e3f 5d9e 363e
00000010: 093f 1ebd 3771 26be ec6d 46be d2da 2cbf
00000020: 9f46 a43e 63e1 26bf e07b 513e af03 b63d
00000030: f55f 0cbf cc7d 07bd 8265 6bbe 1893 ba3e
00000040: d777 4e3f 780e be3e 3d46 913d 47c6 a43c
00000050: bbe5 d03e 8a56 ab3b 957a 843e e589 873e
00000060: 4b8d 51bf 6719 2ebe 2016 553f 4ef4 0bbe
00000070: 9cd0 e83e 7709 f93e 5b48 f33e c9f1 98bd

transformations.8.translation_net.0.bias f4 [16]
0.3279296 -0.124026835 0.6512433 0.2349443 -0.58577967 0.66229135 -0.05241395 0.17315643
-0.16124424 0.38977623 -0.55171686 -0.30786648 -0.078065254 -0.16866599 -0.33972648 0.41490036
00000000: 63e6 a73e c801 febd e2b7 263f 3d95 703e
00000010: a8f5 15bf ed8b 293f 03b0 56bd eb4f 313e
00000020: 361d 25be c090 c73e 513d 0dbf ada0 9dbe
00000030: ade0 9fbd c7b6 2cbe a1f0 adbe d26d d43e

transformations.8.translation_net.2.weight f4 [2, 16]
0.05301845 -0.12480661 0.13293067 -0.14710173 -0.088291824 0.0742476 0.047998697 0.17247653
0.04743576 -0.046091586 0.23734578 -0.08033818 -0.051040858 -0.22549695 -0.19801196 -0.20909944
-0.1423304 -0.34593338 0.17425786 -0.029803693 0.123965085 -0.19249032 0.2712775 0.057530884
-0.35719866 -0.19669266 0.16747716 -0.2629176 0.29246804 -0.28381842 0.22564577 0.28182277
00000000: e029 593d 9c9a ffbd fa1e 083e d6a1 16be
00000010: 58d2 b4bd 200f 983d 489a 443d b09d 303e
00000020: 004c 423d 88ca 3cbd c60a 733e 5888 a4bd
00000030: 3810 51bd ace8 66be a6c3 4abe 2a1e 56be
00000040: 0fbf 11be 2e1e b1be a770 323e e026 f4bc
00000050: 68e1 fd3d 2f1c 45be e2e4 8a3e 81a5 6b3d
00000060: bee2 b6be cd69 49be 227f 2b3e 239d 86be
00000070: 5fbe 953e a650 91be af0f 673e 134b 903e

transformations.8.translation_net.2.bias f4 [2]
0.08061513 -0.13168521
00000000: 8c19 a53d 7dd8 06be

transformations.9.mask f4 [2]
0.0 1.0
00000000: 0000 0000 0000 803f

transformations.9.scale_net.0.weight f4 [16, 2]
0.30940312 -0.82008475 0.22250105 0.33272028 -0.41929927 0.034680143 -0.6468654 -0.6961243
0.40656215 0.4991897 -0.3619272 -0.034253925 -0.16723481 0.5994918 0.16440524 0.5303
-0.17403841 0.19768305 -0.54894954 -1.1349791 -0.45019257 -0.793172 0.14557901 0.5664877
0.041281234 -0.5596117 -0.3683277 -0.2988756 0.050119344 0.04042397 -0.075861715 -0.01824141
00000000: 166a 9e3e 13f1 51bf 51d7 633e 505a aa3e
00000010: 65ae d6be c40c 0e3d f998 25bf 3435 32bf
00000020: ea28 d03e cb95 ff3e 864e b9be d84d 0cbd
00000030: 9a3f 2bbe 4b78 193f d959 283e bec1 073f
00000040: 2037 32be 6d6d 4a3e f587 0cbf ff46 91bf
00000050: a47f e6be 520d 4bbf aa12 153e 5705 113f
00000060: 8316 293d b642 0fbf 7395 bcbe 3906 99be
00000070: f149 4d3d 9b93 253d 635d 9bbd 026f 95bc

transformations.9.scale_net.0.bias f4 [16]
0.6313688 0.28784728 0.09484948 -0.14565866 -0.0076333117 -0.21197909 0.5318635 0.096962236
-0.62465954 0.15775104 0.6298318 0.70924395 0.7642952 -0.26901752 -0.4866598 -0.15702718
00000000: 63a1 213f b860 933e 7240 c23d 8b27 15be
00000010: dc20 fabb 0c11 59be 3528 083f 2394 c63d
00000020: b0e9 1fbf 7d89 213e a83c 213f 0391 353f
00000030: daa8 433f aabc 89be 792b f9be bccb 20be

transformations.9.scale_net.2.weight f4 [2, 16]
-0.40826696 0.03116655 0.17024092 -0.11480641 0.18145134 0.2167513 -0.20055562 -0.0007345453
-0.16865918 -0.7156052 -0.2891428 -0.188007 -0.3548772 -0.18254331 0.0038399994 -0.036060393
0.19501433 -0.02421701 -0.03560707 -0.09577331 0.03864351 0.15515035 -0.034640282 -0.10175654
-0.24698868 0.22623348 0.15349615 0.041882336 -0.20079887 -0.018023223 0.21908492 -0.021906823
00000000: 5e08 d1be fe50 ff3c a353 2e3e a01f ebbd
00000010: 61ce 393e 0ef4 5d3e 745e 4dbe 808e 40ba
00000020: feb4 2cbe e731 37bf 860a 94be e884 40be
00000030: 77b2 b5be a2ec 3abe 80a8 7b3b 10b4 13bd
00000040: d6b1 473e c062 c6bc b8d8 11bd cc24 c4bd
00000050: a848 1e3d bcdf 1e3e f8e2 0dbd bc65 d0bd
00000060: 9aea 7cbe c0a9 673e 182e 1d3e d08c 2b3d
00000070: 389e 4dbe 70a5 93bc cc57 603e f075 b3bc

transformations.9.scale_net.2.bias f4 [2]
0.16962937 0.048526734
00000000: 52b3 2d3e f8c3 463d

transformations.9.translation_net.0.weight f4 [16, 2]
0.6773016 0.19348033 -0.6576814 -0.5570134 0.09257184 -0.2707768 0.5430784 0.3555659
0.4254612 0.2309868 0.40230387 0.33915573 -0.3444612 -0.05956314 0.37803978 -1.016876
-0.25570932 0.3970399 -0.48109698 0.463826 -0.23847336 0.301851 -0.5514644 -0.24647729
-0.45613647 -0.6412069 -0.38979587 0.42935297 0.50233877 -0.080631554 0.5106361 0.5982903
00000000: a363 2d3f b51f 463e cf5d 28bf 6e98 0ebf
00000010: 4e96 bd3d 42a3 8abe 3007 0b3f bc0c b63e
00000020: 0dd6 d93e ce87 6c3e c6fa cd3e d2a5 ad3e
00000030: 385d b0be 7bf8 73bd 6e8e c13e fe28 82bf
00000040: 55ec 82be d048 cb3e 5852 f6be 9a7a ed3e
00000050: 5c32 74be 378c 9a3e c52c 0dbf 8b64 7cbe
00000060: b88a e9be 2326 24bf 5393 c7be 27d4 db3e
00000070: 4699 003f 2822 a5bd 0cb9 023f 8e29 193f

transformations.9.translation_net.0.bias f4 [16]
-0.21494175 -0.031368718 0.5332067 0.01759864 0.6359324 0.44282684 0.313447 0.16707349
0.01431869 0.24126153 -0.30598772 -0.4816578 0.3445815 0.29919478 -0.588093 0.37188417
00000000: b119 5cbe 7c7c 00bd 3c80 083f 062b 903c
00000010: 77cc 223f 33ba e23e 207c a03e 5015 2b3e
00000020: f098 6a3c 430d 773e 6caa 9cbe da9b f6be
00000030: fd6c b03e 0f30 993e 438d 16bf 9a67 be3e

transformations.9.translation_net.2.weight f4 [2, 16]
-0.20198485 0.19096583 -0.038557902 0.13492292 -0.19010414 0.12627985 0.25498217 0.6302056
0.30426264 0.14653121 0.0491212 -0.10664934 -0.04474008 -0.13484532 -0.019429833 0.13341013
0.038903117 0.19920024 0.092000544 0.005289376 -0.21867478 -0.20181462 0.12810004 0.027838647
0.1695404 0.20273751 -0.039170504 -0.08552119 -0.1614846 -0.18122306 0.1044558 -0.055600584
00000000: 1ed5 4ebe 8c8c 433e e4ee 1dbd 3c29 0a3e
00000010: a9aa 42be 814f 013e 068d 823e 2755 213f
00000020: 50c8 9b3e 470c 163e 5033 493d f86a dabd
00000030: 6041 37bd e414 0abe 502b 9fbc aa9c 083e
00000040: e058 1f3d 26fb 4b3e c86a bc3d 8052 ad3b
00000050: 48ec 5fbe 7ea8 4ebe a82c 033e e00d e43c
00000060: 009c 2d3e 6c9a 4f3e 4071 20bd bc25 afbd
00000070: 385c 25be 8a92 39be ecec d53d 70bd 63bd

transformations.9.translation_net.2.bias f4 [2]
0.23478445 0.23598564
00000000: 566b 703e 38a6 713e
